models/match_predictor.pth (torch, 2512 bytes, 3 tensors)

net.0.weight f4 [16, 3]
-0.22347817 -0.45673108 0.12021017 0.014760267 -0.028796127 0.4016605 -0.24003851 0.0025393264
-0.6455218 -0.5657486 -0.2684582 0.20907366 -0.26456589 -0.006533742 -0.35818875 -0.036898144
-0.37065765 0.56745136 -0.036974564 0.09597494 0.24452136 0.14049299 0.24992289 -0.5067588
-0.036946177 -0.6074555 0.1750206 0.094228216 0.22044656 -0.30075938 0.011277605 -0.028542208
0.20763741 -0.46685886 -0.008763044 -0.04450397 -0.27119243 0.021665176 0.1539273 0.2433586
0.3526392 0.045541637 0.34706452 0.2990398 -0.044683956 -0.13794664 -0.28009278 0.24458353
00000000: 76d7 64be a8d8 e9be c030 f63d 0cd5 713c
00000010: dbe5 ebbc 72a6 cd3e a8cc 75be d46a 263b
00000020: eb40 25bf e6d4 10bf 5a73 89be 6817 563e
00000030: 2e75 87be 0019 d6bb 8464 b7be 8222 17bd
00000040: d7c6 bdbe 7e44 113f a472 17bd 828e c43d
00000050: cf63 7a3e 65dd 0f3e c9eb 7f3e f2ba 01bf
00000060: e054 17bd 3482 1bbf 9a38 333e b9fa c03d
00000070: bebc 613e 22fd 99be b4c5 383c 59d1 e9bc
00000080: e79e 543e 2008 efbe df92 0fbc cb49 36bd
00000090: bcd9 8abe 2b7b b13c 1e9f 1d3e ff32 793e
000000a0: 208d b43e de89 3a3d 71b2 b13e bf1b 993e
000000b0: 8606 37bd e241 0dbe 5268 8fbe 1b74 7a3e

net.0.bias f4 [16]
-0.5250081 0.18299986 -0.47823405 0.2856498 -0.5178766 1.2493882 -0.74847007 -0.6437679
-0.066469416 -0.23980977 -0.09941692 -0.04385817 0.05696941 -0.07041952 0.0824796 -0.50032103
00000000: ee66 06bf 5164 3b3e 18db f4be b140 923e
00000010: 9093 04bf f4eb 9f3f bc9b 3fbf f9cd 24bf
00000020: 1e21 88bd b190 75be 199b cbbd a0a4 33bd
00000030: c258 693d 1c38 90bd 11eb a83d 0a15 00bf

net.2.weight f4 [1, 16]
-0.21590623 -0.01501816 -0.0057887505 -0.18583465 -0.22859731 -0.3055363 0.014385786 0.07106744
-0.013289564 -0.11612712 0.015770566 -0.0046342756 0.014935202 0.16441742 -0.117995754 0.075839974
00000000: 8616 5dbe bb0e 76bc 8faf bdbb 704b 3ebe
00000010: 6a15 6abe 416f 9cbe 5cb2 6b3c ce8b 913d
00000020: 79bc 59bc 0ed4 edbd 4631 813c 1fdb 97bb
00000030: c7b2 743c 0a5d 283e c2a7 f1bd fd51 9b3d
